data.pth (torch, 5617 bytes, 6 tensors)

l1.weight f4 [8, 50]
0	0xbd9327d5	-0.07185332
1	0xbccc79a0	-0.02496034
2	0x3d9a427c	0.07532212
3	0x3c37b896	0.011213442
4	0xbd9c1428	-0.07621032
5	0xbdcee6e8	-0.101026356
6	0xbbb86460	-0.0056272
7	0xbc80ca38	-0.015721425
8	0xbce58478	-0.028017268
9	0xbd89c1c5	-0.06726412
10	0xbd7f2ade	-0.06229674
11	0xbc887504	-0.01665736
12	0xbc21dc70	-0.009879217
13	0x3cff6000	0.031173706
14	0xbdc4f854	-0.09617677
15	0xbddaa1c9	-0.10675389
16	0x3dafa2da	0.08575983
17	0xbcb6217c	-0.022232763
18	0xbdecda94	-0.11565128
19	0xbd968094	-0.07348743
20	0xbbf1dda0	-0.007381156
21	0x3dddc062	0.1082771
22	0xbdd4ece4	-0.10396746
23	0xbd0ac8b4	-0.03388281
24	0xbe0a75fa	-0.13521567
25	0x3dd426c0	0.103589535
26	0xbcbb7cc8	-0.022886649
27	0x3d467485	0.048450965
28	0x3b5f9b80	0.0034119785
29	0x3de7aec2	0.11312629
30	0xbc082e30	-0.008311793
31	0x3ddcd1ce	0.107822046
32	0xbb925880	-0.0044661164
33	0xbdbd5d67	-0.09246331
34	0x3cfe4a08	0.03104116
35	0x3d624760	0.05524385
36	0xbd041ffe	-0.032257073
37	0xbd80d4a5	-0.06290559
38	0x3d96dd5e	0.07366441
39	0x3db00b74	0.085959345
40	0xbe01e5c5	-0.12685306
41	0xbd9c005e	-0.076172575
42	0x3c768da0	0.0150484145
43	0x3d9f594e	0.077807054
44	0xbc5a3250	-0.0133176595
45	0x3d7758d4	0.060387447
46	0x3d5f64d2	0.05453951
47	0xbcd2e944	-0.025745995
48	0xbdb5f5f6	-0.08884804
49	0x3c52e047	0.012870855
50	0x3d0a5d3c	0.03378032
51	0x3f44598d	0.76699144
52	0x3eb714bd	0.3575801
53	0x3ee52a8a	0.44759017
54	0x3f3d7683	0.7400896
55	0xbe160333	-0.14649658
56	0x3ee2c49a	0.4429062
57	0x3ef0898e	0.46979946
58	0xbecf41b4	-0.40479815
59	0xbe990128	-0.29883695
60	0xbe4f6b1b	-0.20255701
61	0x3ea48d6c	0.32139146
62	0xbdc0205a	-0.093811706
63	0x3ee5e76a	0.44903117
64	0xbe2edb72	-0.17075899
65	0xbed0d09f	-0.40784165
66	0x3f075e74	0.528785
67	0xbdc0f26e	-0.0942124
68	0x3f098015	0.5371106
69	0x3f23f458	0.64044714
70	0x3e8f5ff2	0.28002888
71	0x3f04eab3	0.5192062
72	0x3ef3f42d	0.4764723
73	0xbead569b	-0.33855137
74	0x3ef9f499	0.48819426
75	0xbe82d9d1	-0.25556806
76	0x3ebaf710	0.3651662
77	0xbe093597	-0.13399349
78	0x3e8e9ba6	0.27853125
79	0xbe8d8a36	-0.2764451
80	0xbe756e95	-0.23967965
81	0x3f06b74d	0.52623445
82	0xbeade55a	-0.33964044
83	0xbee2217e	-0.44166178
84	0x3f1f4c2c	0.62225604
85	0xbe1f751b	-0.15572016
86	0xbf027dde	-0.5097331
87	0xbecf63e3	-0.40505895
88	0x3e902f3d	0.2816104
89	0xbe96c777	-0.29449055
90	0x3ed23dca	0.41062766
91	0xbe82bf5c	-0.2553662
92	0x3e0c4969	0.13699879
93	0x3e3ca44b	0.18422048
94	0x3ecb8b31	0.39754632
95	0x3eeb5fc6	0.45971507
96	0xbefcc313	-0.4936758
97	0xbe8f48be	-0.27985185
98	0xbe839fc4	-0.2570783
99	0x3ecef95a	0.40424615
100	0x3e411de0	0.18859053
101	0x3f1293bb	0.5725667
102	0xbc6cced0	-0.014453605
103	0xbea910e3	-0.33020696
104	0x3f4df04c	0.8044479
105	0xbf0bbf37	-0.54588646
106	0x3f224017	0.63379043
107	0xbe2015ce	-0.15633318
108	0x3ea039bb	0.31294045
109	0x3ed7c19f	0.4213991
110	0x3ec0f609	0.3768771
111	0x3ec66bb1	0.38754037
112	0x3e55bb1f	0.20872162
113	0xbe4c1499	-0.19929732
114	0xbf0bb55d	-0.54573613
115	0xbe4a9fdd	-0.19787546
116	0xbe61daba	-0.22056094
117	0x3ed99790	0.42498446
118	0xbe55cf19	-0.20879783
119	0xbeb00f25	-0.34386554
120	0x3c9cd1e1	0.019143047
121	0x3f34f026	0.7067894
122	0xbd4a8a2f	-0.04944819
123	0xbeaa90a9	-0.33313492
124	0x3f089d78	0.5336528
125	0xbd9ed8a2	-0.07756163
126	0x3ee9c50b	0.45658144
127	0xbebbdbe9	-0.36691216
128	0x3f1e06f7	0.6172938
129	0x3edd80f9	0.4326246
130	0xbe19bcbf	-0.15013407
131	0x3ebdc98d	0.37067834
132	0x3e0e8142	0.13916495
133	0x3dd4bb36	0.1038727
134	0x3f2d61dc	0.67727447
135	0xbf14a485	-0.58063537
136	0xbe89b776	-0.26897782
137	0x3ecd6fb4	0.40124285
138	0x3ea1fc08	0.31637597
139	0x3ee1ae9f	0.44078538
140	0x3eaa4f65	0.33263698
141	0x3f502218	0.8130202
142	0x3e6ee21e	0.23328444
143	0xbe580b17	-0.2109798
144	0x3e854c14	0.26034606
145	0x3e9a0471	0.30081514
146	0xbeb28366	-0.34865874
147	0x3e200cf0	0.15629935
148	0xbe3b32f8	-0.18281162
149	0x3ed3a550	0.4133706
150	0x3df2f5ac	0.118632644
151	0x3c3dd787	0.01158703
152	0xbb81881f	-0.0039529945
153	0x3daab793	0.08335795
154	0x3f242a7e	0.6412734
155	0x3ef78467	0.48343202
156	0x3ee79e1d	0.45237818
157	0x3e24a055	0.16076787
158	0x3f4aac37	0.7916903
159	0x3f17fde3	0.59371775
160	0x3f4f670d	0.8101662
161	0xbe8a7e1d	-0.27049342
162	0x3ef474de	0.47745413
163	0x3e8b3f2d	0.27196637
164	0x3efccd06	0.4937517
165	0x3ebfc649	0.37455967
166	0xbe22222b	-0.15833347
167	0x3db6d863	0.08927991
168	0x3cb1b2ec	0.021691762
169	0x3da102db	0.07861873
170	0x3ebad43b	0.36490044
171	0x3f245832	0.64197075
172	0xbd3f2ba5	-0.046672482
173	0x3f15559f	0.5833377
174	0xbf210a2d	-0.6290615
175	0x3e91a3a0	0.28445148
176	0xbf132614	-0.5747998
177	0x3e836ec1	0.25670436
178	0x3ed39151	0.41321805
179	0x3f5192f5	0.81864864
180	0x3e990ebb	0.2989405
181	0x3e7f6560	0.24941015
182	0x3edef933	0.435495
183	0x3ecf1b7f	0.40450665
184	0x3efa0159	0.48829153
185	0x3daab8f5	0.08336059
186	0x3f070cac	0.5275371
187	0x3f15452d	0.5830868
188	0xbeb208a5	-0.3477222
189	0x3f6218be	0.88319004
190	0xbee850c9	-0.45374134
191	0xbdb998d8	-0.09062356
192	0x3e0123e9	0.12611355
193	0x3edcaaa4	0.43098938
194	0x3e95ac5a	0.29233056
195	0x3ebe2c75	0.37143293
196	0x3f3dbedf	0.7411937
197	0x3ee82072	0.45337254
198	0x3ee1ff3f	0.4414005
199	0x3ef734cd	0.4828247
200	0x3f353dd5	0.70797473
201	0xbce44658	-0.027865574
202	0xbe637713	-0.22213392
203	0xbebf0216	-0.3730628
204	0xbeb3576c	-0.35027635
205	0x3f53b3d8	0.82696295
206	0xbe709b81	-0.2349682
207	0xbe854680	-0.2603035
208	0x3ef4630d	0.4773182
209	0xbc746f79	-0.014919155
210	0x3ecbab3a	0.39779073
211	0xbdc0b4db	-0.094094954
212	0x3ee2e2f0	0.44313765
213	0xbea32e13	-0.3187109
214	0x3f809aac	1.0047202
215	0x3e55ec1f	0.20890854
216	0xbed98218	-0.42482066
217	0x3ecaaaed	0.3958353
218	0xbf0fe4e5	-0.5620864
219	0xbf0b1fae	-0.54345214
220	0xbd60a60a	-0.054845847
221	0x3e32e040	0.17468357
222	0xbea576ca	-0.3231719
223	0x3e5cb80d	0.21554585
224	0xbed493c7	-0.41518995
225	0x3edd7f77	0.4326131
226	0xbeeee96f	-0.4666247
227	0x3f392c48	0.7233319
228	0x3dc7ea65	0.09761504
229	0x3ebcadd7	0.3685138
230	0x3f03851b	0.5137498
231	0xbeac26be	-0.33623308
232	0x3eb2ef04	0.3494798
233	0x3e83b079	0.25720575
234	0xbedc9880	-0.43085098
235	0x3f608c47	0.87714046
236	0xbde944b4	-0.11390057
237	0x3eda9bd5	0.42697015
238	0xbe9bbdef	-0.30418345
239	0x3f05819f	0.5215091
240	0xbe0c3817	-0.13693272
241	0x3f73aaba	0.95182383
242	0x3f078d45	0.52949935
243	0x3de3c009	0.11120612
244	0xbdcc1d26	-0.09966497
245	0xbe3f423c	-0.1867761
246	0x3e6e1c8d	0.23253079
247	0x3ed87f7c	0.42284763
248	0x3c83c852	0.016086731
249	0x3d3bce6c	0.045851156
250	0xbe806926	-0.25080222
251	0xbec789cf	-0.38972327
252	0x3ec23769	0.379329
253	0x3f1557b6	0.5833696
254	0x3e089ba7	0.13340627
255	0x3efd43f0	0.49465895

l1.bias f4 [8]
0	0xbe12f567	-0.14351426
1	0x3f65da46	0.89786184
2	0x3f0ba1f7	0.54544014
3	0x3f5292c3	0.8225519
4	0x3f5f1db7	0.87154716
5	0x3f59b852	0.85046875
6	0x3f2b48ed	0.6690815
7	0x3ef3b0b1	0.47595742

l2.weight f4 [8, 8]
0	0xbbc53cc0	-0.006019205
1	0xbe83e8f8	-0.2576368
2	0xbe57a198	-0.21057737
3	0xbea7fbff	-0.32809445
4	0x3dda42b8	0.10657257
5	0x3e6ffe6a	0.23436895
6	0xbe41c1dc	-0.18921608
7	0xbcf61b50	-0.03004232
8	0x3e7b3586	0.24532136
9	0xbfae3fff	-1.361328
10	0xbe0a889a	-0.13528672
11	0x3f828f41	1.0199968
12	0x3ee64f5e	0.44982427
13	0x3e8bfcac	0.2734121
14	0x3f253bf5	0.6454461
15	0xbe87610c	-0.26441228
16	0x3e6c2c5e	0.230638
17	0x3f826e44	1.01899
18	0x3fa6c4bf	1.3028792
19	0x3ee42c14	0.4456488
20	0xbe3c17e1	-0.18368484
21	0xbf8dc713	-1.1076378
22	0xbf4762c4	-0.7788508
23	0x3f524f67	0.8215241
24	0x3e90a141	0.28248027
25	0x3f6d0df7	0.92599434
26	0xbeb8baff	-0.36080167
27	0x3f78258d	0.969323
28	0x3dc6ad3d	0.09701011
29	0x3fb924bb	1.4464334
30	0x3fbebbbd	1.4901043
31	0xbf80f653	-1.0075172
32	0xbe8204d5	-0.25394312
33	0xbeb941fd	-0.36183158
34	0xbe1733a6	-0.14765796
35	0x3f1dff0c	0.61717296
36	0x3fba1994	1.4539056
37	0xbec59d5b	-0.38596615
38	0xbede7827	-0.43451044
39	0x3f92136c	1.1412177
40	0xbea7bd9a	-0.32761842
41	0x3f045dbc	0.5170553
42	0x3e887885	0.2665445
43	0xbf2e1a4f	-0.68008894
44	0xbf1ee17d	-0.6206282
45	0xbf7b8534	-0.98250127
46	0xbf52c0d7	-0.823255
47	0x3f23ec52	0.6403247
48	0xbe8a0d2e	-0.2696318
49	0xbf3390c3	-0.70142764
50	0x3dee2aa0	0.11629224
51	0x3f58d9d7	0.847074
52	0x3f7f5dbf	0.9975242
53	0xbe3448bd	-0.17605872
54	0xbe2fb3e8	-0.17158473
55	0x3f581c4c	0.8441818
56	0xbdc8a5ec	-0.09797272
57	0xbfa6aed6	-1.3022106
58	0x3ed21e9d	0.4103898
59	0x3f48fd6c	0.7851169
60	0xbdbcee53	-0.09225144
61	0xbced4ed9	-0.028968262
62	0x3efe3d42	0.4965611
63	0x3e2c3dd0	0.16820455

l2.bias f4 [8]
0	0xbe795553	-0.24348955
1	0xbe4afcab	-0.19822948
2	0x3de0bb9e	0.10973285
3	0x3f315c54	0.69281507
4	0x3f2be712	0.6714946
5	0x3db50b12	0.08840002
6	0x3ed0bdb4	0.40769732
7	0xbee9b64c	-0.45646894

l3.weight f4 [7, 8]
0	0xbe46788a	-0.1938192
1	0x3e845377	0.2584493
2	0xbf29e970	-0.6637182
3	0xbf831890	-1.0241871
4	0x3e250d00	0.1611824
5	0xbf1403af	-0.5781812
6	0x3e2cb387	0.16865359
7	0x3fb2b403	1.3961185
8	0xbe90e5c7	-0.28300306
9	0xbf0916f8	-0.5355067
10	0x3f24b546	0.643391
11	0xbfa09a6a	-1.2547123
12	0xbf3e49dd	-0.74331456
13	0x3f2bca81	0.6710587
14	0xbf6686dc	-0.9004953
15	0xbf0dc130	-0.55372906
16	0x3e0dc266	0.13843688
17	0xbaa09c00	-0.0012253523
18	0xbfe700ca	-1.8047116
19	0x3e0a9844	0.13534647
20	0x3f1eb6ab	0.6199748
21	0xbf5c8164	-0.86134934
22	0x3e9ee880	0.31036758
23	0xbf9bde8e	-1.2177293
24	0xbe3f53c6	-0.18684301
25	0xbf6c01cd	-0.9219025
26	0xbfafae9d	-1.3725163
27	0x3f930359	1.1485397
28	0xbf9e4a33	-1.2366394
29	0xbe1a377a	-0.15060225
30	0xbf75bedc	-0.95994353
31	0xbfceb3a2	-1.614857
32	0x3e1c0f72	0.15240267
33	0x3f71af81	0.9440842
34	0xbf85f39c	-1.0464969
35	0x3da2ba25	0.079456605
36	0xbf2b2a82	-0.66861737
37	0xbf06c322	-0.526415
38	0xbe3a0805	-0.18167122
39	0x3f4c9e2b	0.79928845
40	0xbe795d28	-0.24351943
41	0xbf56db2f	-0.839282
42	0x3ec4915c	0.3839215
43	0x3ded4b36	0.11586611
44	0xbf8ae130	-1.0849972
45	0xbf93a31c	-1.1534152
46	0xbf568dff	-0.8381042
47	0xbf472aca	-0.77799666
48	0x3bcbdec0	0.006221622
49	0xbfc5553b	-1.5416635
50	0xbd7810bc	-0.060562834
51	0xbf81ebdb	-1.0150102
52	0x3f1fa199	0.62355953
53	0xbfe086c3	-1.7541126
54	0x3f0061fd	0.5014952
55	0xbf75f02d	-0.96069604

l3.bias f4 [7]
0	0xbf19206d	-0.598151
1	0x3e202fea	0.15643278
2	0xbd8b6ab3	-0.06807461
3	0x3ee9bf65	0.45653835
4	0xbf101cfd	-0.5629423
5	0xbe82b58c	-0.25529134
6	0x3dfdd122	0.123934045
